MultiAgents(
  (networks): ModuleList(
    (0-6): 7 x Agent(
      (network): Sequential(
        (0): Conv2d(3, 32, kernel_size=(8, 8), stride=(4, 4))
        (1): ReLU()
        (2): Conv2d(32, 64, kernel_size=(4, 4), stride=(2, 2))
        (3): ReLU()
        (4): Conv2d(64, 64, kernel_size=(3, 3), stride=(1, 1))
        (5): ReLU()
        (6): Flatten(start_dim=1, end_dim=-1)
        (7): Linear(in_features=3136, out_features=512, bias=True)
        (8): ReLU()
      )
      (actor): Linear(in_features=512, out_features=8, bias=True)
      (critic): Linear(in_features=512, out_features=1, bias=True)
    )
  )
)
num_updates = total_timesteps / batch_size: 2000000 / 512 = 3906
MultiAgents(
  (networks): ModuleList(
    (0-6): 7 x Agent(
      (network): Sequential(
        (0): Conv2d(3, 32, kernel_size=(8, 8), stride=(4, 4))
        (1): ReLU()
        (2): Conv2d(32, 64, kernel_size=(4, 4), stride=(2, 2))
        (3): ReLU()
        (4): Conv2d(64, 64, kernel_size=(3, 3), stride=(1, 1))
        (5): ReLU()
        (6): Flatten(start_dim=1, end_dim=-1)
        (7): Linear(in_features=3136, out_features=512, bias=True)
        (8): ReLU()
      )
      (actor): Linear(in_features=512, out_features=8, bias=True)
      (critic): Linear(in_features=512, out_features=1, bias=True)
    )
  )
)
num_updates = total_timesteps / batch_size: 2000000 / 512 = 3906
SPS: 33.00244902319922
Episode lengths:  [999 999 999 999 999 999 999]
global_step=1000, episodic_max_length=999
global_step=1000, episodic_efficiency=0.1021021021021021
global_step=1000, episodic_equality=0.5210083944044428
global_step=1000, episodic_sustainability=14.571428571428571
…
